Model: "sequential"
_________________________________________________________________
Layer (type)                 Output Shape              Param #
=================================================================
rescaling (Rescaling)        (16, 256, 256, 3)         0
_________________________________________________________________
dense (Dense)                (16, 256, 256, 256)       1024
_________________________________________________________________
conv2d (Conv2D)              (16, 256, 256, 256)       590080
_________________________________________________________________
batch_normalization (BatchNo (16, 256, 256, 256)       1024
_________________________________________________________________
activation (Activation)      (16, 256, 256, 256)       0
_________________________________________________________________
max_pooling2d (MaxPooling2D) (16, 128, 128, 256)       0
_________________________________________________________________
dropout (Dropout)            (16, 128, 128, 256)       0
_________________________________________________________________
conv2d_1 (Conv2D)            (16, 128, 128, 128)       295040
_________________________________________________________________
batch_normalization_1 (Batch (16, 128, 128, 128)       512
_________________________________________________________________
activation_1 (Activation)    (16, 128, 128, 128)       0
_________________________________________________________________
max_pooling2d_1 (MaxPooling2 (16, 32, 32, 128)         0
_________________________________________________________________
dropout_1 (Dropout)          (16, 32, 32, 128)         0
_________________________________________________________________
conv2d_2 (Conv2D)            (16, 32, 32, 128)         147584
_________________________________________________________________
batch_normalization_2 (Batch (16, 32, 32, 128)         512
_________________________________________________________________
activation_2 (Activation)    (16, 32, 32, 128)         0
_________________________________________________________________
max_pooling2d_2 (MaxPooling2 (16, 8, 8, 128)           0
_________________________________________________________________
dropout_2 (Dropout)          (16, 8, 8, 128)           0
_________________________________________________________________
flatten (Flatten)            (16, 8192)                0
_________________________________________________________________
dense_1 (Dense)              (16, 8)                   65544
=================================================================
Total params: 1,101,320
Trainable params: 1,100,296
Non-trainable params: 1,024
_________________________________________________________________
None
Epoch 1/50
2021-12-22 22:59:31.939765: I tensorflow/compiler/mlir/mlir_graph_optimization_pass.cc:116] None of the MLIR optimization passes are enabled (registered 2)
2021-12-22 22:59:31.942706: I tensorflow/core/platform/profile_utils/cpu_utils.cc:112] CPU Frequency: 2299995000 Hz
…
