_________________________________________________________________
 Layer (type)                Output Shape              Param #   
=================================================================
 rescaling (Rescaling)       (32, 128, 128, 3)         0         
                                                                 
 dense (Dense)               (32, 128, 128, 128)       512       
                                                                 
 conv2d (Conv2D)             (32, 128, 128, 256)       295168    
                                                                 
 batch_normalization (BatchN  (32, 128, 128, 256)      1024      
 ormalization)                                                   
                                                                 
 activation (Activation)     (32, 128, 128, 256)       0         
                                                                 
 max_pooling2d (MaxPooling2D  (32, 64, 64, 256)        0         
 )                                                               
                                                                 
 conv2d_1 (Conv2D)           (32, 64, 64, 256)         590080    
                                                                 
 batch_normalization_1 (Batc  (32, 64, 64, 256)        1024      
 hNormalization)                                                 
                                                                 
 activation_1 (Activation)   (32, 64, 64, 256)         0         
                                                                 
 max_pooling2d_1 (MaxPooling  (32, 16, 16, 256)        0         
 2D)                                                             
                                                                 
 conv2d_2 (Conv2D)           (32, 16, 16, 256)         590080    
                                                                 
 batch_normalization_2 (Batc  (32, 16, 16, 256)        1024      
 hNormalization)                                                 
                                                                 
 activation_2 (Activation)   (32, 16, 16, 256)         0         
                                                                 
 max_pooling2d_2 (MaxPooling  (32, 4, 4, 256)          0         
 2D)                                                             
                                                                 
 conv2d_3 (Conv2D)           (32, 4, 4, 128)           295040    
                                                                 
 batch_normalization_3 (Batc  (32, 4, 4, 128)          512       
 hNormalization)                                                 
                                                                 
 activation_3 (Activation)   (32, 4, 4, 128)           0         
                                                                 
 max_pooling2d_3 (MaxPooling  (32, 1, 1, 128)          0         
 2D)                                                             
                                                                 
 res_net_block (ResNetBlock)  (32, 1, 1, 128)          0         
                                                                 
 res_net_block_1 (ResNetBloc  (32, 1, 1, 128)          0         
 k)                                                              
                                                                 
 res_net_block_2 (ResNetBloc  (32, 1, 1, 128)          0         
 k)                                                              
                                                                 
 res_net_block_3 (ResNetBloc  (32, 1, 1, 128)          0         
 k)                                                              
                                                                 
 res_net_block_4 (ResNetBloc  (32, 1, 1, 128)          0         
 k)                                                              
                                                                 
 flatten (Flatten)           (32, 128)                 0         
                                                                 
 dense_1 (Dense)             (32, 2048)                264192    
                                                                 
 dense_2 (Dense)             (32, 8)                   16392     
                                                                 
=================================================================
Total params: 2,055,048
Trainable params: 2,053,256
Non-trainable params: 1,792
_________________________________________________________________
None
Epoch 1/5
165/165 [==============================] - ETA: 0s - loss: 1.4948 - categorical_accuracy: 0.4463
Epoch 00001: loss improved from inf to 1.49483, saving model to best_model.hdf5
…
